---------LOG at 2025-05-29 23:10:19---------
---------LOG at 2025-05-29 23:11:34---------
---------LOG at 2025-05-29 23:12:48---------
---------LOG at 2025-05-29 23:13:47---------
Loading data...
Vocab size: 4762
Time usage: 0:00:00
<bound method Module.parameters of Model(
  (embedding): Embedding(4762, 300)
  (lstm1): LSTM(300, 128, num_layers=2, batch_first=True, dropout=0.5, bidirectional=True)
  (tanh1): Tanh()
  (attention1): Linear(in_features=256, out_features=1, bias=True)
  (gate): Sequential(
    (0): Linear(in_features=256, out_features=256, bias=True)
    (1): Sigmoid()
  )
  (lstm2): LSTM(256, 128, num_layers=2, batch_first=True, dropout=0.5, bidirectional=True)
  (tanh2): Tanh()
  (attention2): Linear(in_features=256, out_features=1, bias=True)
  (fc): Sequential(
    (0): Linear(in_features=512, out_features=128, bias=True)
    (1): ReLU()
    (2): Dropout(p=0.5, inplace=False)
    (3): Linear(in_features=128, out_features=64, bias=True)
    (4): ReLU()
    (5): Dropout(p=0.5, inplace=False)
    (6): Linear(in_features=64, out_features=3, bias=True)
  )
)>
Epoch [1/20]
---------LOG at 2025-05-29 23:14:24---------
Loading data...
Vocab size: 4762
Time usage: 0:00:00
<bound method Module.parameters of Model(
  (embedding): Embedding(4762, 300)
  (lstm1): LSTM(300, 128, num_layers=2, batch_first=True, dropout=0.5, bidirectional=True)
  (tanh1): Tanh()
  (attention1): Linear(in_features=256, out_features=1, bias=True)
  (gate): Sequential(
    (0): Linear(in_features=256, out_features=256, bias=True)
    (1): Sigmoid()
  )
  (lstm2): LSTM(256, 128, num_layers=2, batch_first=True, dropout=0.5, bidirectional=True)
  (tanh2): Tanh()
  (attention2): Linear(in_features=256, out_features=1, bias=True)
  (fc): Sequential(
    (0): Linear(in_features=512, out_features=128, bias=True)
    (1): ReLU()
    (2): Dropout(p=0.5, inplace=False)
    (3): Linear(in_features=128, out_features=64, bias=True)
    (4): ReLU()
    (5): Dropout(p=0.5, inplace=False)
    (6): Linear(in_features=64, out_features=3, bias=True)
  )
)>
Epoch [1/20]
Iter:      0,  Train Loss:   1.1,  Train Acc: 15.62%,  Val Loss:   1.1,  Val Acc: 78.12%,  Time: 0:00:02 *
Iter:     10,  Train Loss:  0.75,  Train Acc: 71.28%,  Val Loss:  0.61,  Val Acc: 78.12%,  Time: 0:00:04 *
Epoch [2/20]
Iter:     20,  Train Loss:  0.63,  Train Acc: 73.44%,  Val Loss:  0.58,  Val Acc: 78.12%,  Time: 0:00:05 *
Epoch [3/20]
…
